"TinyLlama/TinyLlama-1.1B-Chat-v1.0"


LlamaForCausalLM(
  (model): LlamaModel(
    (embed_tokens): Embedding(32000, 2048)
    (layers): ModuleList(
      (0-21): 22 x LlamaDecoderLayer(
        (self_attn): LlamaSdpaAttention(
          (q_proj): Linear(in_features=2048, out_features=2048, bias=False)
          (k_proj): Linear(in_features=2048, out_features=256, bias=False)
          (v_proj): Linear(in_features=2048, out_features=256, bias=False)
          (o_proj): Linear(in_features=2048, out_features=2048, bias=False)
          (rotary_emb): LlamaRotaryEmbedding()
        )
        (mlp): LlamaMLP(
          (gate_proj): Linear(in_features=2048, out_features=5632, bias=False)
          (up_proj): Linear(in_features=2048, out_features=5632, bias=False)
          (down_proj): Linear(in_features=5632, out_features=2048, bias=False)
          (act_fn): SiLU()
        )
        (input_layernorm): LlamaRMSNorm()
        (post_attention_layernorm): LlamaRMSNorm()
      )
    )
    (norm): LlamaRMSNorm()
  )
  (lm_head): Linear(in_features=2048, out_features=32000, bias=False)

LlamaConfig {
  "_name_or_path": "TinyLlama/TinyLlama-1.1B-Chat-v1.0",
  "architectures": [
    "LlamaForCausalLM"
  ],
  "attention_bias": false,
  "attention_dropout": 0.0,
  "bos_token_id": 1,
  "eos_token_id": 2,
  "hidden_act": "silu",
  "hidden_size": 2048,
  "initializer_range": 0.02,
  "intermediate_size": 5632,
  "max_position_embeddings": 2048,
  "mlp_bias": false,
  "model_type": "llama",
  "num_attention_heads": 32,
  "num_hidden_layers": 22,
  "num_key_value_heads": 4,
  "pretraining_tp": 1,
  "rms_norm_eps": 1e-05,
  "rope_scaling": null,
  "rope_theta": 10000.0,
  "tie_word_embeddings": false,
  "torch_dtype": "bfloat16",
  "transformers_version": "4.41.2",
  "use_cache": true,
  "vocab_size": 32000
}

# -----------------------------------------------------------------------------------------

"meta-llama/Meta-Llama-3-8B"

LlamaForCausalLM(
  (model): LlamaModel(
    (embed_tokens): Embedding(128256, 4096)
    (layers): ModuleList(
      (0-31): 32 x LlamaDecoderLayer(
        (self_attn): LlamaSdpaAttention(
          (q_proj): Linear(in_features=4096, out_features=4096, bias=False)
          (k_proj): Linear(in_features=4096, out_features=1024, bias=False)
          (v_proj): Linear(in_features=4096, out_features=1024, bias=False)
          (o_proj): Linear(in_features=4096, out_features=4096, bias=False)
          (rotary_emb): LlamaRotaryEmbedding()
        )
        (mlp): LlamaMLP(
          (gate_proj): Linear(in_features=4096, out_features=14336, bias=False)
          (up_proj): Linear(in_features=4096, out_features=14336, bias=False)
          (down_proj): Linear(in_features=14336, out_features=4096, bias=False)
          (act_fn): SiLU()
        )
        (input_layernorm): LlamaRMSNorm()
        (post_attention_layernorm): LlamaRMSNorm()
      )
    )
    (norm): LlamaRMSNorm()
  )
  (lm_head): Linear(in_features=4096, out_features=128256, bias=False)
)


model.config
LlamaConfig {
  "_name_or_path": "meta-llama/Meta-Llama-3-8B",
  "architectures": [
    "LlamaForCausalLM"
  ],
  "attention_bias": false,
  "attention_dropout": 0.0,
  "bos_token_id": 128000,
  "eos_token_id": 128001,
  "hidden_act": "silu",
  "hidden_size": 4096,
  "initializer_range": 0.02,
  "intermediate_size": 14336,
  "max_position_embeddings": 8192,
  "mlp_bias": false,
  "model_type": "llama",
  "num_attention_heads": 32,
  "num_hidden_layers": 32,
  "num_key_value_heads": 8,
  "pretraining_tp": 1,
  "rms_norm_eps": 1e-05,
  "rope_scaling": null,
  "rope_theta": 500000.0,
  "tie_word_embeddings": false,
  "torch_dtype": "bfloat16",
  "transformers_version": "4.41.2",
  "use_cache": true,
  "vocab_size": 128256
}


# --------------------------------------------------------------------------------

MambaLMHeadModel(
  (backbone): MixerModel(
    (embedding): Embedding(128256, 2560)
    (layers): ModuleList(
      (0-5): 6 x Block(
        (norm): RMSNorm()
        (mixer): Mamba(
          (in_proj): Linear(in_features=2560, out_features=10240, bias=False)
          (conv1d): Conv1d(5120, 5120, kernel_size=(4,), stride=(1,), padding=(3,), groups=5120)
          (act): SiLU()
          (x_proj): Linear(in_features=5120, out_features=192, bias=False)
          (dt_proj): Linear(in_features=160, out_features=5120, bias=True)
          (out_proj): Linear(in_features=5120, out_features=2560, bias=False)
        )
      )
    )
    (norm_f): RMSNorm()
  )
  (lm_head): Linear(in_features=2560, out_features=128256, bias=False)
)

MambaConfig(d_model=2560,
            d_intermediate=0,
            n_layer=6,
            vocab_size=128256,
            ssm_cfg={},
            attn_layer_idx=[],
            attn_cfg={},
            rms_norm=True,
            residual_in_fp32=True,
            fused_add_norm=True,
            pad_vocab_size_multiple=8,
            tie_embedd
…
